handwritten_letters.onnx (onnx, 554974 bytes, 12 tensors)

StatefulPartitionedCall/sequential_1/dense_3/MatMul/ReadVariableOp:0 f4 [128, 26]
0	0xbcbdb48a	-0.023157377
1	0xbc1bb636	-0.009503892
2	0xbc6d50d0	-0.014484599
3	0xbe6dbff9	-0.23217763
4	0x3ddcc41f	0.10779595
5	0x3e2aa75f	0.1666541
6	0x3d662178	0.056184262
7	0xbdb00e24	-0.08596447
8	0x3df94c48	0.121727526
9	0x3cc57a96	0.024106305
10	0xbd28fc30	-0.04125613
11	0x3e0a796c	0.13522881
12	0xbe41ee51	-0.18938567
13	0xbe68ee79	-0.2274722
14	0x3d4370c3	0.04771496
15	0xbe52b596	-0.20577082
16	0x3d0a1117	0.033707704
17	0x3e07944a	0.13240162
18	0xbd7d7d64	-0.06188716
19	0xbd927778	-0.07151693
20	0x3d002834	0.03128834
21	0xbe8d1339	-0.27553728
22	0xbe480d64	-0.19536358
23	0xbe567f92	-0.20947102
24	0xbd130823	-0.03589643
25	0xbcb2b524	-0.02181489
26	0x3df15e60	0.11785579
27	0xbde5e36e	-0.112250194
28	0xb9872d06	-0.00025782752
29	0x3cb3b762	0.02193803
30	0xbcb6959d	-0.022288138
31	0xbe50c850	-0.20388913
32	0xbde9f062	-0.114228025
33	0xbe3ae061	-0.18249656
34	0xbe41b4e2	-0.18916658
35	0xbdac98ca	-0.0842758
36	0xbe75bd6e	-0.23998043
37	0x3dff0c0b	0.12453469
38	0xbda892b4	-0.082311064
39	0xbdd2bee9	-0.102903195
40	0xbc17dfc1	-0.009269656
41	0xbe17499d	-0.14774175
42	0xbbef7fdd	-0.0073089437
43	0xbdc19430	-0.09452093
44	0xbdccf4fa	-0.10007663
45	0xbd8adda5	-0.067805566
46	0xbd3f52b2	-0.046709724
47	0xbe0fbd0a	-0.14036956
48	0x3d813e66	0.0631073
49	0xbd2ac72d	-0.041693855
50	0x3d69e051	0.05709869
51	0x3c5a5a9d	0.013327268
52	0xbcf8a367	-0.030351354
53	0x3dde6e16	0.10860841
54	0x3c7be967	0.015375472
55	0x3e00afc5	0.12567051
56	0xbd372463	-0.044712435
57	0xbcf83059	-0.030296491
58	0xbb8bdb1e	-0.004268064
59	0xbe35a680	-0.17739296
60	0x3e1fff35	0.15624698
61	0xbdf70df8	-0.12063211
62	0x3daa8968	0.083269894
63	0x3e1a2563	0.15053324
64	0xbe1c8460	-0.15284872
65	0xbe1baa14	-0.15201598
66	0xbd677c28	-0.05651489
67	0xbdd03d51	-0.10167945
68	0xbe411f38	-0.18859565
69	0x3df298d1	0.11845554
70	0xbe36bad9	-0.17844714
71	0x3e023998	0.12717283
72	0xbadd603e	-0.0016889644
73	0x3d92649e	0.071480975
74	0xbe309de1	-0.17247726
75	0xbe86ead7	-0.26351044
76	0xbe82da83	-0.25557336
77	0xbd8a7eb2	-0.067624465
78	0x3d7f1eb1	0.06228513
79	0xbdb37ad1	-0.0876366
80	0x3d57ad7c	0.052655682
81	0xbe4fa757	-0.20278679
82	0xbc567966	-0.013090467
83	0xbca91c8b	-0.020643493
84	0x3c1f60b7	0.009727648
85	0x3bdf982c	0.00682356
86	0xbdc2677a	-0.09492393
87	0xbe3ea81d	-0.18618818
88	0xbe0aec95	-0.13566811
89	0xbd4f57ea	-0.05062095
90	0x3b21b9a0	0.0024677292
91	0xbc004988	-0.007830031
92	0xbe1ba89d	-0.1520104
93	0x3bea7caa	0.0071559744
94	0xbdd8ff43	-0.10595562
95	0x3c1c45dc	0.00953814
96	0xbe3b08b0	-0.18265033
97	0xbcaa4cc6	-0.020788562
98	0xbe039c3e	-0.1285257
99	0x3d0fa6e3	0.035071265
100	0x3d3da785	0.046302337
101	0x3cea352d	0.02858981
102	0x3ddf44a7	0.10901766
103	0x3e22ddd4	0.15904933
104	0xbe493b08	-0.19651425
105	0xbc721fa2	-0.01477805
106	0x3d870550	0.0659281
107	0x3df69674	0.120404154
108	0xbc4c9af5	-0.0124881165
109	0xbda88f2c	-0.08230433
110	0x3be9ae53	0.007131377
111	0xbe368ad3	-0.17826395
112	0xbd8f7f07	-0.070066504
113	0x3cc2d5f1	0.023783656
114	0xbcbbc3eb	-0.02292057
115	0xbddc3cba	-0.1075377
116	0xbdb092a7	-0.08621722
117	0x3d1a1aae	0.0376231
118	0x3d9e4deb	0.077297054
119	0x3def554d	0.11686192
120	0x3e1372fd	0.14399333
121	0xbe209085	-0.1568013
122	0xbd474ab2	-0.04865522
123	0xbdef0321	-0.11670519
124	0xbe3f7c93	-0.18699865
125	0xbe1fa2a3	-0.15589385
126	0x3deb6e98	0.114957035
127	0xbe58ff62	-0.21191171
128	0x3d648366	0.055789374
129	0xbe0eb76c	-0.13937157
130	0xbe3bdef2	-0.18346766
131	0x3dd8fd7e	0.10595225
132	0xbe2ccfa3	-0.16876082
133	0x3db1b80b	0.086776815
134	0xbdc1eeb8	-0.0946936
135	0xbe2cf642	-0.16890815
136	0xbde6d33b	-0.11270758
137	0x3d026344	0.03183295
138	0x3c0edd98	0.008719824
139	0x3e038bf2	0.12846354
140	0x3c4a97b7	0.012365273
141	0x3e155a60	0.14585257
142	0xbda8ae02	-0.08236314
143	0x3de2dafa	0.11076923
144	0xbdbe25b9	-0.09284539
145	0x3d7b12d5	0.061297256
146	0x3e2ecde1	0.17070724
147	0xbd35e162	-0.044404395
148	0x3df060ce	0.11737214
149	0xbdcd68a1	-0.10029722
150	0xbd3bff49	-0.045897756
151	0x3e08a0b5	0.13342555
152	0xbe00d15c	-0.12579864
153	0x3e60254e	0.2188923
154	0xbdb316fc	-0.08744618
155	0xbe278752	-0.16360214
156	0x3e02c9a1	0.12772228
157	0x3d1f8c87	0.038952377
158	0x3dee3daa	0.11632855
159	0xbd31e386	-0.043429874
160	0xbeb82a7b	-0.3596991
161	0x3cacb3b2	0.02108178
162	0xbe6e69e8	-0.23282588
163	0x3d92b2d6	0.071630165
164	0xbe970697	-0.29497215
165	0xbdd4a735	-0.10383455
166	0xbd7d7ebc	-0.06188844
167	0xbd34e8bb	-0.04416726
168	0xbcbe57c2	-0.023235206
169	0xbe0242d7	-0.1272081
170	0x3d6c01d4	0.05761893
171	0x3c3c8d21	0.011508257
172	0xbe4090c6	-0.18805227
173	0xbde5d5e6	-0.112224385
174	0xbe80e508	-0.25174737
175	0xbe1bdd28	-0.15221083
176	0xbe15a0ec	-0.14612168
177	0xbd21436f	-0.03937095
178	0xbd0edb4a	-0.0348771
179	0x3e0fcc99	0.14042892
180	0x3e0a2315	0.13489945
181	0x3ca7025a	0.020386863
182	0xbe50bd8a	-0.20384803
183	0x3ddc8564	0.1076763
184	0x3d93a7e9	0.07209761
185	0xbdf9767e	-0.12180804
186	0x3dd0de04	0.10198596
187	0xbe94efc5	-0.2908918
188	0x3e988eba	0.29796392
189	0xba934d3c	-0.0011238228
190	0xbe3cb89a	-0.18429795
191	0xbd117b4c	-0.035517976
192	0x3cf03fe2	0.029327337
193	0xbdb8a9c8	-0.09016758
194	0x3e0b6522	0.13612798
195	0xbd417120	-0.047227025
196	0xbe7a031f	-0.24415253
197	0xbe67ad43	-0.22624688
198	0xbd73a790	-0.059485972
199	0x3d524a32	0.05134029
200	0xbdc3595b	-0.095385276
201	0x3d0f8cd6	0.03504642
202	0xbc0c4b0b	-0.0085628135
203	0xbdaf67de	-0.08564733
204	0x3e40fe2f	0.18846963
205	0xbdd42846	-0.10359244
206	0xbd04a3b4	-0.032382682
207	0xbb836699	-0.0040100333
208	0xbda56fdb	-0.08077975
209	0x3e39e77e	0.18154714
210	0xbce65cf3	-0.028120494
211	0x3e0c0052	0.13671997
212	0x3c33a112	0.010963695
213	0x3c09e281	0.008415819
214	0x3e250ea9	0.16118874
215	0xbdcab90a	-0.09898575
216	0xbc20a731	-0.009805487
217	0xbd31133d	-0.043231238
218	0xbe0de092	-0.13855198
219	0x3c1578da	0.009123052
220	0xbdab7990	-0.083727956
221	0xbdc92073	-0.09820642
222	0xbd1d2175	-0.038361985
223	0x3d4bc19f	0.0497452
224	0x3d8e7bb1	0.06957186
225	0xbe599464	-0.21248013
226	0x3d236593	0.03989179
227	0xbd9bf432	-0.07614936
228	0xbd9791fc	-0.07400891
229	0xbe4a544c	-0.19758719
230	0x3df5b6ae	0.11997734
231	0xbe7fc487	-0.24977313
232	0xbde2d1ff	-0.1107521
233	0xbe209483	-0.15681653
234	0xbd2a3867	-0.041557696
235	0xbd854ccb	-0.06508788
236	0x3d88cf5c	0.06680176
237	0xbe691743	-0.2276278
238	0x3e51d3d5	0.20490964
239	0x3ba79f3e	0.0051154187
240	0xbd77a0ea	-0.060456194
241	0x3de6ea00	0.11275101
242	0xbe4379ea	-0.19089475
243	0x3dc5be6c	0.09655461
244	0x3d0924a9	0.033482227
245	0xbe42f71a	-0.19039574
246	0xbe19ce3e	-0.15020081
247	0x3cb19ac6	0.021680247
248	0xbbaf4521	-0.005348817
249	0xbe2fe9c1	-0.17179014
250	0xbe109eac	-0.14123029
251	0xbe61aea0	-0.2203927
252	0xbd9c077f	-0.07618617
253	0xbdca0f42	-0.098661914
254	0x3ce80bdb	0.028325966
255	0x3e30e843	0.17276101

StatefulPartitionedCall/sequential_1/dense_3/BiasAdd/ReadVariableOp:0 f4 [26]
0	0x3d5e8a5d	0.054331172
1	0xbcdb2917	-0.026752992
2	0xbcf557eb	-0.02994915
3	0x3d1c0c4d	0.03809767
4	0x3de72c94	0.112877995
5	0xbd15a54b	-0.03653459
6	0xbdb6d7b6	-0.08927862
7	0x3babd10c	0.005243426
8	0x3cdb29c3	0.026753312
9	0xbda38f8d	-0.079863645
10	0x3bc023ad	0.005863628
11	0x3d9ffcbc	0.07811877
12	0xbdd79b59	-0.10527677
13	0x3d92f79d	0.07176135
14	0xbd727ba9	-0.059199963
15	0xbd229c4b	-0.039699834
16	0xbe091000	-0.1338501
17	0xbc9d12be	-0.019173976
18	0xbd9055eb	-0.070476376
19	0x3d79f154	0.061021164
20	0x3dcdd33f	0.100500576
21	0xbdad38a8	-0.08458072
22	0x3de2bec3	0.11071541
23	0x3deab62b	0.11460527
24	0x3dfc2689	0.123120375
25	0xbc8ad373	-0.01694653

StatefulPartitionedCall/sequential_1/dense_2/MatMul/ReadVariableOp:0 f4 [64, 128]
0	0xbdfd24c5	-0.12360529
1	0x3bf2d502	0.0074106464
2	0x3e00957c	0.12557024
3	0x3ba6e2bd	0.0050929473
4	0x3d6b781f	0.057487603
5	0xbd5f159a	-0.05446396
6	0xbdabc8e8	-0.08387929
7	0x3d4d0355	0.050052006
8	0x3d794629	0.060857926
9	0xbc0a198a	-0.008428941
10	0x3d84c814	0.064834744
11	0xbc92cc6c	-0.017919742
12	0xbdf7edbf	-0.12105893
13	0x3d94d657	0.072674446
14	0x3d5a50aa	0.053299583
15	0x3d7d426a	0.061830916
16	0xbddecac9	-0.10878522
17	0xbe295a45	-0.16538341
18	0x3dcf2360	0.10114169
19	0xbddf1f4a	-0.1089464
20	0xbd1e4e1e	-0.038648717
21	0x3d455df8	0.04818532
22	0xbba205b3	-0.004944527
23	0xbda8c448	-0.08240563
24	0x3d639ef9	0.05557153
25	0xbd91ee14	-0.07125488
26	0x3d570ec5	0.05250432
27	0x3daca1be	0.084292874
28	0x3d3fb38c	0.04680209
29	0x3d70b083	0.058762085
30	0xbdd4146c	-0.10355458
31	0xbc90eaf1	-0.017690154
32	0x3e1f93fa	0.15583792
33	0x3d804c53	0.06264558
34	0x3e63083b	0.22171108
35	0xbd6ae585	-0.057347793
36	0x3d3ac919	0.045601938
37	0x3da34029	0.07971222
38	0xba416b1b	-0.00073783257
39	0x3e1aabf3	0.15104656
40	0x3d42f345	0.04759528
41	0x3e4fff87	0.2031232
42	0xbd3211cb	-0.043474
43	0x3d513ded	0.051084448
44	0x3e218c68	0.15776217
45	0xbd63fab0	-0.055658996
46	0xbd4462ea	-0.047945894
47	0xbdd77c6d	-0.10521779
48	0x3d99736d	0.07492719
49	0xbe5a8b28	-0.21342146
50	0x3e3c56ea	0.1839253
51	0x3e3561bb	0.17713062
52	0x3e0dbd37	0.13841711
53	0xbbd9c703	-0.0066460385
54	0xbd9a148c	-0.0752345
55	0x3df2fce3	0.118646406
56	0x3d190a82	0.037363537
57	0x3da00dff	0.078151695
58	0xbe8cbcce	-0.27487797
59	0xbdc4ea4c	-0.09615001
60	0xbd0e645a	-0.03476367
61	0xbdbfbc6f	-0.09362113
62	0x3dcc0b42	0.09963085
63	0x3e392284	0.18079573
64	0xbe035383	-0.12824826
65	0xbd0ce9ec	-0.034402773
66	0xbda8d9c1	-0.08244658
67	0x3e267c44	0.16258341
68	0x3cda55bd	0.026652211
69	0xbd6847e0	-0.05670917
70	0xbe1dc544	-0.15407282
71	0x3d854dff	0.06509017
72	0x3d4d74fa	0.050160386
73	0xbc538dae	-0.012912197
74	0x3e035798	0.12826383
75	0xbd7499cf	-0.059716996
76	0x3e924174	0.28565562
77	0x3d32f35c	0.043689117
78	0x3d86f53b	0.06589743
79	0x3c181f4f	0.009284808
80	0xbcaf7677	-0.021418793
81	0xbd0afde5	-0.03393354
82	0x3e1e211d	0.15442319
83	0x3e28e8d5	0.16495068
84	0xbd877bf9	-0.06615443
85	0x3d43f80e	0.047843985
86	0x3dff0f84	0.12454131
87	0x3ce61c05	0.028089533
88	0x3d511581	0.0510459
89	0xbd73c3be	-0.059512846
90	0xbc6f4a79	-0.014605158
91	0x3dd927e4	0.10603312
92	0x3dc22127	0.094789796
93	0x3dc5f244	0.09665349
94	0x3d2be12e	0.041962795
95	0xbc071c8f	-0.008246555
96	0x3d66c2e0	0.05633819
97	0xbdff0ca0	-0.1245358
98	0x3ce1acb1	0.027548166
99	0xbe242423	-0.1602941
100	0xbe4e6619	-0.20156135
101	0xbe13cf5e	-0.14434573
102	0xbe18c11c	-0.14917415
103	0xbdbce189	-0.09222705
104	0xbd0722fb	-0.032992344
105	0xbd20a97d	-0.039224137
106	0x3e091309	0.13386168
107	0xbe390204	-0.18067175
108	0x3dc48a61	0.09596706
109	0x3dd06425	0.10175351
110	0xbba31bc0	-0.0049776733
111	0x3a860734	0.0010225535
112	0xbcf39665	-0.0297348
113	0x3e2c4410	0.16822839
114	0x3d00098f	0.031259116
115	0xbbcf3f5c	-0.0063246917
116	0xbd942692	-0.07233919
117	0xbe3eed86	-0.18645296
118	0x3d05a87c	0.032631382
119	0xbd8fb63a	-0.07017179
120	0x3c465f42	0.012107672
121	0xbe2082fa	-0.15674964
122	0xbd8c7f3c	-0.068602055
123	0xbd305d66	-0.04305782
124	0xbd12ce6c	-0.03584139
125	0x3cf1c671	0.02951357
126	0x3e3481a7	0.17627583
127	0xbd88a021	-0.06671167
128	0xbe1f129c	-0.15534443
129	0x3d01e213	0.03170974
130	0x3e0c55a4	0.13704544
131	0xbdad0b5a	-0.08449431
132	0xbe28b0a9	-0.1647364
133	0xbe253582	-0.16133693
134	0xbd870485	-0.06592659
135	0x3dbb7f65	0.09155158
136	0xba75a6b6	-0.000937085
137	0xbe2d4b4d	-0.16923256
138	0xbe077209	-0.13227095
139	0x3d28e828	0.041237026
140	0x3cce1eab	0.025161108
141	0xbd0fec53	-0.035137486
142	0x3d13b5f5	0.0360622
143	0xbdbe4252	-0.09289993
144	0xbe0d7f9f	-0.13818215
145	0x3cca13a5	0.02466757
146	0x3e062aa7	0.13102208
147	0x3d475962	0.048669226
148	0xbe013ef6	-0.12621674
149	0x3c3973a6	0.011319077
150	0xbdf8a323	-0.12140491
151	0xbd336f59	-0.04380736
152	0x3aa8d8d4	0.0012882003
153	0xbd4db6ce	-0.050223164
154	0x3c6c2328	0.014412679
155	0xbdf146fe	-0.11781119
156	0x3e1ff847	0.15622054
157	0x3e3b1009	0.18267836
158	0x3d1e63af	0.038669284
159	0x3e0bbb7d	0.1364574
160	0xbc3742fd	-0.011185405
161	0x3cde658d	0.027148033
162	0xbda93d87	-0.082636885
163	0x3c75ad3a	0.014994914
164	0xbe26a2a0	-0.16272974
165	0x3dde0c7d	0.10842226
166	0x3b9f9f65	0.004871296
167	0x3d1141ff	0.03546333
168	0x3c0aa2f1	0.0084617
169	0xbc6b461d	-0.014359978
170	0xbdb235da	-0.087016776
171	0x3d0ce620	0.03439915
172	0x3ce7f3b1	0.028314443
173	0x3b0b856d	0.0021289245
174	0x3e3ae669	0.18251957
175	0xbe20ddd8	-0.15709627
176	0xbe1d95a7	-0.15389119
177	0x3d292718	0.04129705
178	0xbe1079ab	-0.14108913
179	0xbe2fff69	-0.17187275
180	0xbc69543d	-0.014241275
181	0x3c91e1f1	0.017807933
182	0x3d815402	0.06314851
183	0x3dbecc29	0.09316284
184	0x3d34ee39	0.0441725
185	0x3e10cee7	0.14141427
186	0xbd391c38	-0.045192927
187	0xbd93bcf9	-0.07213778
188	0x3dd8e1ba	0.10589929
189	0xbd46b712	-0.048514433
190	0xbd51a890	-0.051186144
191	0xbe4684d7	-0.19386612
192	0x3db183ba	0.08667703
193	0xbd986d70	-0.074427485
194	0xbc90b2e4	-0.017663427
195	0x3db2a26e	0.08722387
196	0x3e0b07b4	0.13577157
197	0x3e2088a5	0.15677126
198	0x3db304bd	0.08741138
199	0xbd94faa4	-0.072743684
200	0xbd98885d	-0.07447884
201	0x3deebf56	0.11657588
202	0xbdaff65d	-0.08591912
203	0xbd615715	-0.05501469
204	0xbde6bf35	-0.112669386
205	0xbe123543	-0.1427813
206	0x3dae1a54	0.085011154
207	0x3db6d55a	0.08927412
208	0xbd912168	-0.0708645
209	0x3d7a14fa	0.06105516
210	0x3d5df88a	0.054192103
211	0xbce78b60	-0.028264701
212	0x3dad404f	0.084595315
213	0xbcc1c66f	-0.02365419
214	0xbc5c9619	-0.01346352
215	0xbd87e227	-0.06634932
216	0x3c380d7c	0.011233684
217	0xbd6dc3c4	-0.058048025
218	0x3d8a5f2b	0.06756433
219	0x3d12f26f	0.035875734
220	0x3d9623ad	0.07331023
221	0x3d91ffbc	0.071288556
222	0x3c8abcb9	0.016935693
223	0xbc8acd0e	-0.01694348
224	0xbe23b27f	-0.1598606
225	0xbe0c11c8	-0.13678658
226	0xbe1b6b4f	-0.15177654
227	0xbdfda7ec	-0.12385544
228	0x3db639bd	0.088977315
229	0xbb8b53ac	-0.004251918
230	0xbe06d5c9	-0.1316749
231	0xba887788	-0.00104116
232	0x3db76f8e	0.08956824
233	0xbc99c7b2	-0.01877198
234	0x3e0c66a5	0.13711031
235	0xbdb2c784	-0.08729461
236	0xbcfea6f0	-0.031085461
237	0xbd77c910	-0.060494483
238	0xbd3ef224	-0.046617642
239	0x3e2aa44e	0.1666424
240	0x3e25efdf	0.16204785
241	0x3e0594cc	0.13045043
242	0x3dddf3a2	0.10837485
243	0xbdd7be37	-0.105343275
244	0x3cef8afe	0.029241081
245	0xbdf14c2e	-0.11782108
246	0xbd83fb11	-0.064443715
247	0x3e106e0b	0.14104478
248	0xbe3082a0	-0.1723733
249	0xbdc98052	-0.09838928
250	0x3d7d3b44	0.0618241
251	0xbbc00176	-0.005859549
252	0xbe0fc6ec	-0.14040726
253	0xbdedb1f3	-0.11606207
254	0x3e078a3f	0.1323633
255	0xbd488b37	-0.04896089

StatefulPartitionedCall/sequential_1/dense_2/BiasAdd/ReadVariableOp:0 f4 [128]
0	0xbc627779	-0.01382243
1	0x3d430424	0.04761137
2	0xbd2fd666	-0.042929076
3	0x3caab84d	0.020839835
4	0xbe260554	-0.1621297
5	0xbdd202f3	-0.10254469
6	0x3d8398f6	0.06425659
7	0x3d796792	0.060889788
8	0xbdac155f	-0.08402514
9	0xbd3067bc	-0.04306768
10	0xbdf4be1c	-0.11950323
11	0xbe055ca3	-0.1302362
12	0xbe13908a	-0.14410606
13	0xbca67089	-0.020317333
14	0xbd60c455	-0.054874737
15	0x3d5af1d3	0.053453278
16	0x3da7a4dc	0.08185741
17	0x3e3c595b	0.18393461
18	0x3d382e24	0.044965878
19	0x3d8b7839	0.0681004
20	0xbd03dc01	-0.032192234
21	0xbc75853d	-0.01498538
22	0xbd34cef7	-0.04414269
23	0xbd578e78	-0.052626103
24	0x3df7498a	0.12074573
25	0xbd0f3d55	-0.0349706
26	0xbddc2a9f	-0.10750317
27	0xbe3e57ea	-0.18588224
28	0xbc24fc7c	-0.010069963
29	0xbd666c9f	-0.056255933
30	0xbdbeacd6	-0.093103096
31	0x3c4b1d26	0.012397086
32	0xbc94900f	-0.018135099
33	0x3d0490c1	0.03236461
34	0x3cd66166	0.02616949
35	0xbddbc8ad	-0.10731635
36	0xbcaa1677	-0.020762665
37	0x3e025a88	0.12729847
38	0xbc6775c9	-0.014127203
39	0xbdb5b179	-0.08871741
40	0x3d9d6338	0.0768494
41	0xbd50179a	-0.05080376
42	0xbc7e203d	-0.015510616
43	0xbd482645	-0.04886462
44	0xbc486199	-0.0122303
45	0xbbbc5f35	-0.0057486543
46	0xbdc5b824	-0.09654263
47	0x3d44e77e	0.04807233
48	0x3d27e011	0.04098517
49	0x3c0dd3ad	0.0086564245
50	0x3ddb9901	0.107225426
51	0x38b98cf2	8.8477405e-05
52	0xbda98033	-0.08276405
53	0xbcee9a06	-0.029126178
54	0x3d81902e	0.06326328
55	0xbd93ec8b	-0.07222851
56	0xbd1d3493	-0.038380217
57	0xbe1cbbea	-0.15306059
58	0xbcc512b4	-0.02405677
59	0xbd617eb4	-0.055052474
60	0x3d525205	0.05134775
61	0xbc397c72	-0.011321174
62	0x3c8f4c46	0.017492425
63	0xbd682351	-0.056674305
64	0xbcac0415	-0.02099804
65	0xbd8aec61	-0.06783367
66	0x3d9e0b65	0.07717017
67	0x3db5cb01	0.088766105
68	0x3c6a29d4	0.014292199
69	0x3cc4d917	0.024029298
70	0x3ca82daf	0.020529596
71	0xbda12be6	-0.07869701
72	0xbd75634c	-0.05990915
73	0x3d2f5900	0.042809486
74	0xbd4a015b	-0.0493177
75	0x3cc25013	0.023719823
76	0x3e18b1b7	0.14911543
77	0xbdaa58f3	-0.08317747
78	0x3cfa01f4	0.03051851
79	0xbd16ead5	-0.036845047
80	0xbda032c9	-0.078221865
81	0xbd0d68a9	-0.03452364
82	0xbc26dd62	-0.010184618
83	0x3bd4bfb2	0.0064925784
84	0xbd1153f2	-0.035480447
85	0xbe24a78c	-0.16079539
86	0xb98e88fa	-0.00027186406
87	0x3df12b45	0.11775831
88	0x3d1d6d7a	0.038434483
89	0xbd2a3297	-0.041552152
90	0x3dc414de	0.095742926
91	0x3d12ef6d	0.035872865
92	0xbda6cce7	-0.08144551
93	0xbe328956	-0.17435202
94	0xbe04db88	-0.1297437
95	0xbd889ae6	-0.066701695
96	0xbd3385ed	-0.043828893
97	0x3b7065fe	0.0036681886
98	0x3d59a3f0	0.05313486
99	0xbdc10c1b	-0.09426137
100	0xbe65c75a	-0.22439328
101	0xbb3f0de9	-0.0029152578
102	0xbe210b3a	-0.15726939
103	0x3e08c436	0.13356099
104	0xbd2dcef1	-0.042433683
105	0x3cf1a37c	0.0294969
106	0x3cc1fa13	0.023678815
107	0xbdc82eb3	-0.09774532
108	0xbc445987	-0.011984236
109	0x3d41205b	0.047149997
110	0xbcbb767e	-0.02288365
111	0x3c0f97bf	0.008764206
112	0xbd538bab	-0.05164687
113	0x3ce28819	0.027652787
114	0x3cb60bcf	0.022222428
115	0xbd97db7a	-0.07414909
116	0x3cbdb1b4	0.023156025
117	0x3e095481	0.13411142
118	0x3dc7e842	0.097610965
119	0xbd86c4e7	-0.06580525
120	0xbdc2b672	-0.09507455
121	0x3a2b2c02	0.000652969
122	0x3d55f24a	0.052233018
123	0xbe202869	-0.15640415
124	0xbcf02892	-0.02931622
125	0x3d0c1e8e	0.034208827
126	0xbcb5cfa8	-0.022193745
127	0xbc59fe24	-0.013305221

StatefulPartitionedCall/sequential_1/dense_1/MatMul/ReadVariableOp:0 f4 [512, 64]
0	0x3d31325c	0.043260917
1	0x3d3bad9b	0.04581986
2	0xbd9715c2	-0.07377197
3	0xbcadd707	-0.021220697
4	0x3dcde65c	0.10053703
5	0xbd9327dc	-0.07185337
6	0xbd05d923	-0.03267778
7	0xbe0109b3	-0.12601356
8	0x3c278f7c	0.01022708
9	0xbd734cb3	-0.059399318
10	0x3dc03498	0.093850315
11	0x3dc30c82	0.0952387
12	0x3d8b5ee8	0.06805211
13	0xbc3777d3	-0.011198002
14	0x3d7f1350	0.062274277
15	0x3c917628	0.017756537
16	0x3dbbf3f3	0.09177389
17	0x3c68fdc1	0.014220656
18	0xbd227b07	-0.03966811
19	0x3b23696b	0.002493466
20	0xbc562807	-0.013071067
21	0x3d26cdaa	0.04072348
22	0x3b94fb84	0.0045465846
23	0xbda1a96c	-0.07893643
24	0x3cb2929c	0.021798424
25	0xbda50fbe	-0.08059643
26	0xbc7ccb98	-0.0154294
27	0xbd558759	-0.05213103
28	0x3c7b2eb3	0.015330958
29	0xbd0217eb	-0.03176109
30	0xbcda11c6	-0.026619803
31	0xbd3d44e6	-0.046208285
32	0x3db82dac	0.08993086
33	0xbd151965	-0.03640117
34	0x3db0166c	0.08598027
35	0x3c505a71	0.012716875
36	0x3dbf169c	0.09330484
37	0x3d6874ed	0.056752134
38	0x3d7ff4a4	0.062489167
39	0x3cd691be	0.026192542
40	0xbd91b465	-0.07114486
41	0xbd2710a0	-0.04078734
42	0xbe0229cb	-0.12711255
43	0xbdcafce5	-0.09911517
44	0x3d3563fb	0.044284802
45	0x3d28d613	0.041219782
46	0x3d739b8d	0.059474517
47	0x3c88eb96	0.016713899
48	0x3d5c4fdd	0.0537871
49	0x3d81c982	0.06337263
50	0x3d3677b0	0.044547737
51	0xbd237c1b	-0.039913278
52	0x3c6b78ba	0.014372045
53	0x3e647b6c	0.22312707
54	0xbe254632	-0.16140059
55	0x3cbe93d3	0.023263847
56	0x3d31b6c8	0.043387204
57	0xbd9cf0d9	-0.076631255
58	0xbd75a255	-0.059969265
59	0xbd848ad3	-0.06471791
60	0x3dae3cbb	0.08507677
61	0x3cd819b3	0.026379442
62	0xbd729a1b	-0.059228998
63	0x3cd88c60	0.026434124
64	0x3db47fb4	0.0881342
65	0xbdc8f8dd	-0.09813092
66	0xbb3494e8	-0.0027554575
67	0x3d954836	0.07289164
68	0xbddc7c14	-0.107658535
69	0x3dade0ec	0.08490166
70	0x3cd59329	0.026071148
71	0x3e2fe7af	0.17178224
72	0x3daa2bc8	0.08309132
73	0xbb59640a	-0.00331712
74	0xbd3fed7c	-0.046857342
75	0xbc9b8c43	-0.01898778
76	0xbd74717c	-0.05967854
77	0x3c833421	0.016016068
78	0xbd1ede11	-0.038785998
79	0x3de89218	0.1135599
80	0x3d479300	0.048724174
81	0xbbbdd12d	-0.005792758
82	0x3d338c91	0.043835226
83	0x3ca77c67	0.020445062
84	0x3dab28bd	0.083573796
85	0x3d684775	0.05670877
86	0x3cadc619	0.021212624
87	0xbccad3f6	-0.024759274
88	0xbd20287d	-0.039101113
89	0xbd93de6e	-0.072201595
90	0x3c93434d	0.017976427
91	0x3d00ab73	0.031413507
92	0x3db78ff3	0.08963003
93	0xbc2e965d	-0.010655967
94	0xbe128839	-0.14309777
95	0xbdc8519d	-0.097811915
96	0x3d5398bc	0.05165933
97	0x3d3aeb8f	0.045634802
98	0x3d9ed5da	0.07755633
99	0xbd29f30b	-0.04149155
100	0x3e09ac46	0.13444623
101	0xbda0c6a3	-0.07850387
102	0xbd9b0ca3	-0.0757077
103	0x3dc43d01	0.09581948
104	0x3d77d6ff	0.06050777
105	0x3d9d7cf4	0.076898485
106	0x3b87b23f	0.0041411216
107	0x3c858182	0.016297106
108	0xbc8e090c	-0.017338298
109	0x3da39551	0.07987464
110	0x3d991e4b	0.07476481
111	0x3daf59a5	0.0856202
112	0xbd3d79aa	-0.046258606
113	0xbd7f5493	-0.062336516
114	0x3b81a363	0.003956245
115	0xbd75950c	-0.059956595
116	0xbbefdcc0	-0.0073200166
117	0xbde21f26	-0.11041097
118	0xbde7f33e	-0.11325692
119	0xbd740846	-0.059578203
120	0x3ad0dd79	0.0015935145
121	0xbcc6043d	-0.024171943
122	0x3db260d1	0.087098725
123	0x3d193412	0.037403174
124	0x3d527784	0.05138351
125	0xbd9ca8f9	-0.076494165
126	0x3d3eb1cf	0.04655629
127	0xbbbd2770	-0.0057725236
128	0xbdf0ae55	-0.11752001
129	0xbda66a7c	-0.08125779
130	0x3baf4008	0.0053482093
131	0x3d22dc70	0.039761007
132	0xbdcdce5b	-0.10049125
133	0xbd97c5c9	-0.074107714
134	0xbd8ac331	-0.06775511
135	0x3dd7be61	0.10534359
136	0x3d9dab09	0.07698638
137	0xbdc29cfe	-0.095026
138	0xbd06a2f0	-0.032870233
139	0x3c9a21cd	0.018814946
140	0xbde95e9d	-0.11394999
141	0xbcfe075b	-0.031009367
142	0x3d0edfd7	0.03488144
143	0xb90c4ce8	-0.0001338009
144	0xbc9c34f3	-0.019068217
145	0xbccd0a2c	-0.025029264
146	0x3decf67f	0.11570453
147	0xbd86f8ac	-0.06590399
148	0x3cead0fa	0.0286641
149	0xbdcf3a1f	-0.101185076
150	0x3da17960	0.078844786
151	0x3ce1c9ae	0.027561989
152	0xbe260561	-0.1621299
153	0xbc546fa6	-0.012966072
154	0x3cf30259	0.029664205
155	0xbd8cc36d	-0.06873212
156	0x3d89f5ca	0.06736334
157	0xbd7728aa	-0.060341515
158	0xbdae4c68	-0.08510667
159	0xbd1ab578	-0.03777072
160	0x3d69f408	0.057117492
161	0xbd30ab0d	-0.043131877
162	0x3d68685a	0.056740142
163	0xbd317cdb	-0.043331962
164	0xbdcfce3a	-0.101467565
165	0xbdac71f0	-0.08420169
166	0x3a9a6e5c	0.0011782157
167	0x3dddca79	0.10829634
168	0xbbf2625a	-0.0073969783
169	0xbbd672a1	-0.0065444265
170	0x3d55e353	0.052218746
171	0xbd126f2f	-0.035750564
172	0xbb619d06	-0.0034425869
173	0xbd187039	-0.0372164
174	0x3d631ff4	0.055450395
175	0x3e02a9f5	0.12760146
176	0x3df347b2	0.11878909
177	0xbd8f652b	-0.07001718
178	0xbdd5587e	-0.10417269
179	0xbdf25401	-0.11832429
180	0x3beb06e3	0.007172452
181	0x3d4a228c	0.049349353
182	0x3cfdbf17	0.030974908
183	0xbe16fa62	-0.14743951
184	0x3d8391b8	0.06424278
185	0x3a24d503	0.0006287845
186	0x3d7fdf25	0.062468667
187	0x3d11dc2a	0.035610355
188	0xbd38900f	-0.04505926
189	0xbbc6cc05	-0.0060668015
190	0x3bcb8b29	0.0062116575
191	0x3c99d64a	0.018778939
192	0x3d4972a8	0.04918161
193	0x3cd1b279	0.025597798
194	0xbd89cf14	-0.0672895
195	0x3d292a36	0.04130002
196	0x3c9e41e0	0.019318521
197	0xbd22b0a7	-0.03971925
198	0xbc6aca17	-0.014330409
199	0x3def3282	0.116795555
200	0x3d1925d4	0.03738959
201	0x3db22254	0.08697954
202	0xbe1689ef	-0.14701055
203	0xbd08f79e	-0.03343927
204	0xbdd6bf6d	-0.1048573
205	0x3cee1f18	0.029067561
206	0x3dbe6eb8	0.09298462
207	0x3c8bfe0a	0.017088909
208	0xbe22d214	-0.15900451
209	0x3d30fd74	0.04321046
210	0x3d53b85f	0.0516895
211	0xbdaa3258	-0.083103836
212	0xbdd78df5	-0.10525123
213	0x3db12f70	0.08651626
214	0x3da767ae	0.08174072
215	0xbd408e00	-0.04701042
216	0x3c91e8be	0.017811175
217	0x3d591857	0.053001728
218	0xbd88fd59	-0.06688947
219	0xbdc842a0	-0.09778333
220	0x3d357fb7	0.04431125
221	0xbd1c5ed9	-0.03817639
222	0xbddd6011	-0.10809339
223	0x3d660b31	0.056163017
224	0x3c978507	0.01849605
225	0x3d634ffc	0.0554962
226	0x3d922a25	0.07136945
227	0xbc507ad6	-0.012724599
228	0xbddb6d2c	-0.10714182
229	0xbbb4fbb4	-0.0055231694
230	0xbd8e9f22	-0.06963946
231	0xbdcbce5f	-0.099514715
232	0x3ce7cbe8	0.028295472
233	0x3ae7cb12	0.0017684421
234	0xbe1afbe1	-0.15135147
235	0x3cb2e989	0.021839874
236	0x3a00288a	0.00048888533
237	0xbc9abfac	-0.018890224
238	0xbe21d141	-0.1580248
239	0x3dbae012	0.09124769
240	0xbd4ad3f4	-0.04951854
241	0xbcfb7d10	-0.030699283
242	0x3cd8c213	0.02645973
243	0x3e0c2099	0.1368431
244	0xbe2ef0a5	-0.17083986
245	0xbd3eb177	-0.046555962
246	0xbd00a389	-0.03140596
247	0xbcd79de7	-0.02632041
248	0xbdc8a9f7	-0.09798043
249	0xbd5e161c	-0.054220304
250	0x3d50ba6a	0.05095903
251	0xbb9e28bb	-0.004826633
252	0xbda4742f	-0.08029973
253	0xbda19a51	-0.07890762
254	0xbd471afe	-0.048609726
255	0xbca3bf94	-0.019988813

StatefulPartitionedCall/sequential_1/dense_1/BiasAdd/ReadVariableOp:0 f4 [64]
0	0xbd5d5dcc	-0.05404453
1	0xbd856fcf	-0.065154664
2	0xbd290b33	-0.041270446
3	0xbd211bce	-0.039333157
4	0xbd1871a4	-0.03721775
5	0xbc9805df	-0.018557487
6	0xbd538500	-0.05164051
7	0xbd5ade7b	-0.05343483
8	0xbd828c3b	-0.06374403
9	0xbd38f5dd	-0.04515635
10	0xbd8918a1	-0.06694151
11	0xbc8c7170	-0.017143935
12	0x3d58021b	0.052736383
13	0xbd476445	-0.04867961
14	0xbd32c469	-0.043644343
15	0xbce4a54d	-0.027910853
16	0xbd36ea25	-0.04465689
17	0xbd888804	-0.06666568
18	0xbd584ae8	-0.05280581
19	0xbcaefe5d	-0.021361524
20	0x3bd29632	0.006426596
21	0xbd92cc2a	-0.071678475
22	0xbc736536	-0.014855674
23	0xbd1192c3	-0.035540354
24	0xbc1a8c2a	-0.009432832
25	0xbd97460d	-0.07386408
26	0xbb30694b	-0.0026918228
27	0xbd13e09a	-0.03610287
28	0xbd2d552c	-0.042317554
29	0xbc86b61f	-0.016444264
30	0xbd7440da	-0.05963216
31	0xbc6f6eed	-0.014613849
32	0xbc8647e3	-0.0163917
33	0xbd27f2ea	-0.041003145
34	0xbdb1840b	-0.08667763
35	0xbdaca499	-0.08429832
36	0xbcf74718	-0.030185267
37	0xbd92349d	-0.071389414
38	0xbcd68ee4	-0.026191182
39	0xbd0ff6a0	-0.03514731
40	0xbd35d55b	-0.044392925
41	0x3d679200	0.05653572
42	0xbdc126b9	-0.09431214
43	0x3cd78dc2	0.026312713
44	0x3a81e9bc	0.0009911577
45	0xbcf253c2	-0.029580954
46	0xbd364775	-0.04450174
47	0xbd664f77	-0.056228127
48	0xbc34ec27	-0.011042631
49	0xbd761897	-0.060082044
50	0x3d4277ad	0.047477413
51	0x3d137f4d	0.036010075
52	0xbce553d0	-0.027994066
53	0x3da83b14	0.08214393
54	0xbd06d14d	-0.03291445
55	0x3db88646	0.090099856
56	0xbcc4d632	-0.024027918
57	0xbd020c04	-0.03174974
58	0xbd6c81f1	-0.05774111
59	0x3d776491	0.060398642
60	0xbcd5ee43	-0.026114589
61	0xbd1798ab	-0.03701083
62	0xbd330414	-0.04370506
63	0xbd0238c6	-0.031792425

StatefulPartitionedCall/sequential_1/conv2d_3/Conv2D/ReadVariableOp:0 f4 [128, 64, 3, 3]
0	0xbda48dac	-0.08034834
1	0xbccf11cb	-0.025277039
2	0xbc80a176	-0.01570199
3	0xbc85b33c	-0.016320817
4	0xbe052500	-0.13002396
5	0xbda4b060	-0.08041453
6	0xbdd77dfb	-0.10522076
7	0x3b975503	0.0046182885
8	0xbd5d4686	-0.054022335
9	0xbddd1c8b	-0.1079646
10	0x3bd5aead	0.006521067
11	0x3ce29f5b	0.027663877
12	0xbc9cb68e	-0.019130018
13	0xbd6fd736	-0.05855485
14	0x3dc753ce	0.09732781
15	0xbc88986e	-0.016674247
16	0xb9df3c08	-0.000425786
17	0x3c6c0ee2	0.014407845
18	0xbcef18a9	-0.029186564
19	0xbcd775da	-0.026301313
20	0xbd42d812	-0.047569342
21	0xbe2daaab	-0.16959636
22	0xbda11dc0	-0.078670025
23	0xbdba35ab	-0.090922676
24	0xbc6911b3	-0.014225411
25	0xbd554263	-0.052065264
26	0xbd9fc51f	-0.0780127
27	0xbe1ea912	-0.15494183
28	0xbdbd2ddb	-0.09237262
29	0x3e22fdf5	0.1591719
30	0xbd8cc43c	-0.06873366
31	0xbc14eb0c	-0.009089243
32	0xbc39567a	-0.0113121215
33	0x3b9bc10b	0.004753237
34	0xbd9f8f83	-0.077910446
35	0x3da8aea6	0.082364365
36	0xbdce09b6	-0.10060446
37	0xbdaeb37e	-0.08530329
38	0x3caa6f69	0.020805078
39	0xbdada8b8	-0.08479446
40	0xbd09a78b	-0.033607047
41	0xbd8a3535	-0.0674843
42	0xbc771e7e	-0.0150829535
43	0xbba02304	-0.0048869867
44	0xbe21d777	-0.1580485
45	0x3c12f96b	0.008970599
46	0x3d8f8809	0.070083685
47	0x3e7829bd	0.24234672
48	0xbd4c6ed1	-0.04991037
49	0xbdae87a6	-0.08521967
50	0x3e22b986	0.15891084
51	0xbdc2ffd7	-0.09521454
52	0xbdd91980	-0.10600567
53	0x3b21fac3	0.0024716116
54	0xbbd7fc9e	-0.0065913936
55	0x3cdb1ee4	0.026748128
56	0x3e07d914	0.13266402
57	0xbdd43cce	-0.1036316
58	0xbd6dbe9f	-0.05804312
59	0xbbdffdb2	-0.0068356628
60	0xbda93070	-0.08261192
61	0xbde686d5	-0.11256186
62	0xbd7a7a8e	-0.061152034
63	0xbe355f54	-0.17712146
64	0x3daa6d0f	0.083215825
65	0x3cade8e0	0.021229208
66	0xbd98c774	-0.07459918
67	0x3d99394f	0.07481634
68	0xbdd2b6c7	-0.10288768
69	0xbd93bbe0	-0.07213569
70	0x3d191768	0.037375838
71	0x3b4f8e56	0.0031670532
72	0xbcef30f8	-0.029198155
73	0xbd480524	-0.048833027
74	0xbda68155	-0.08130137
75	0xbe18841c	-0.14894146
76	0xbd09327a	-0.033495404
77	0xbe51d2bb	-0.20490544
78	0x3d21e70c	0.039526984
79	0xbccc602e	-0.024948206
80	0xbd2f9a62	-0.04287184
81	0xbd74df07	-0.059783008
82	0xbd61c0e9	-0.055115614
83	0xbc8b3af4	-0.016995884
84	0x3d261ef8	0.040556878
85	0xbd8fabae	-0.07015167
86	0x3cf8d0bd	0.030372972
87	0xbc66daff	-0.014090299
88	0x3cfbd99d	0.030743415
89	0x3d326f31	0.04356307
90	0x3c8ccf30	0.017188638
91	0xbd1646f3	-0.036688756
92	0xbba10b90	-0.0049147084
93	0xbdbe0d2b	-0.09279855
94	0xbd982503	-0.074289344
95	0xbd724225	-0.05914511
96	0x3d630a4a	0.055429734
97	0x3e01414d	0.12622567
98	0x3e43d536	0.19124302
99	0xbd4cb504	-0.049977317
100	0xbe087393	-0.13325338
101	0xbd9ee23a	-0.07757993
102	0x3d73159b	0.059346776
103	0xbd700b5c	-0.058604583
104	0xbda44dda	-0.080226615
105	0xbdebb61b	-0.11509343
106	0xbb87d5b4	-0.0041453484
107	0xb8b38dae	-8.561775e-05
108	0xbd956517	-0.07294672
109	0x3d88d0db	0.06680461
110	0x3db6eaea	0.08931525
111	0xbd1bb379	-0.038012955
112	0xbbd557a5	-0.006510692
113	0x3d640a0a	0.055673636
114	0x3da4b3c0	0.08042097
115	0xbda3e857	-0.080033
116	0x3a5b511c	0.0008366273
117	0xbd48d78a	-0.04903368
118	0x3b25b120	0.0025282577
119	0xbd93d000	-0.07217407
120	0x3d9b60fb	0.07586857
121	0xbda43885	-0.08018593
122	0xbc7a5488	-0.015278943
123	0xbce32c66	-0.027731132
124	0x3c9d36fc	0.019191258
125	0xbd91a2d4	-0.07111135
126	0xbdb20eae	-0.08694206
127	0xbd80d0d8	-0.06289834
128	0x3c75b60c	0.014997017
129	0xbdef6220	-0.11688638
130	0xbd7839d1	-0.060602013
131	0xbc7a79c3	-0.015287819
132	0xbcec6edc	-0.028861456
133	0xbbc09f64	-0.005878376
134	0x3d51bd09	0.05120567
135	0xbe3c4ace	-0.1838791
136	0xbcbfd8c1	-0.023418786
137	0x3b9f223f	0.0048563774
138	0xbdae0135	-0.08496324
139	0xbc121587	-0.008916265
140	0xbac83eff	-0.0015277563
141	0x3dc61caa	0.09673436
142	0xbc81f8e3	-0.015865749
143	0x3d766758	0.06015715
144	0xbd8cdca1	-0.06878019
145	0xbc03eda0	-0.00805226
146	0xbd47b943	-0.048760664
147	0x3d512cc3	0.05106808
148	0xbe6519cb	-0.2237312
149	0xbd643e31	-0.055723373
150	0xbddb3168	-0.10702783
151	0xbc2eb1ab	-0.0106624765
152	0x3dfcca43	0.12343266
153	0xbe1768a3	-0.1478601
154	0x3d7cf143	0.061753523
155	0xbd82349c	-0.06357691
156	0xbde3a67a	-0.11115737
157	0xbdaa154a	-0.08304842
158	0xbcd0c638	-0.025485143
159	0xbdb3df92	-0.08782877
160	0xbe258518	-0.16164052
161	0xbd0b6c92	-0.034039088
162	0xbe0f0ad9	-0.13968982
163	0x3d7e9d72	0.06216187
164	0x3e192069	0.1495377
165	0xbdd39cf4	-0.10332671
166	0xbd05e567	-0.03268948
167	0xbce8f926	-0.028439116
168	0xbe0e12fb	-0.13874428
169	0xbddc0089	-0.107422896
170	0xbd906c9d	-0.07051966
171	0xbd57f9d1	-0.052728478
172	0xbd1b0bb4	-0.037852958
173	0x3c8d20eb	0.01722761
174	0x3e04fab7	0.12986265
175	0x3db84ff3	0.08999624
176	0xbd0a9d36	-0.033841334
177	0x3d9473ab	0.072486244
178	0xbd216b46	-0.039408945
179	0xbda91cdd	-0.08257458
180	0x3be6ad3e	0.007039695
181	0x3d001f30	0.031279743
182	0xbdc9cd77	-0.098536424
183	0xbd041cc1	-0.032253984
184	0x3c22e4bc	0.00994223
185	0xbcb16fb9	-0.021659719
186	0xbdddb315	-0.10825173
187	0xbdb319ad	-0.08745132
188	0x3e2eb4df	0.17061184
189	0xbd288585	-0.04114296
190	0xbdfc137c	-0.12308404
191	0x3c57d74a	0.0131738875
192	0xbdd0ed74	-0.102015406
193	0xbe098ade	-0.1343188
194	0xbdbc7ca0	-0.09203458
195	0xbda4d05d	-0.08047555
196	0xbd03449d	-0.032047857
197	0xbdc41a72	-0.095753565
198	0xbe503b58	-0.20335138
199	0xbccd8425	-0.025087425
200	0x3e18c84f	0.14920162
201	0xbd1e3644	-0.03862597
202	0x3b827412	0.003981122
203	0xbdc8b005	-0.09799198
204	0x3d126bdf	0.035747405
205	0xbd774ab0	-0.060373962
206	0xbdc2f790	-0.09519875
207	0xbd4e85b6	-0.050420485
208	0x3c39541c	0.011311557
209	0xbc1d39d9	-0.0095963115
210	0xbd0679b5	-0.032830913
211	0xbd3508fe	-0.04419803
212	0x3d71f993	0.059075903
213	0xbd1a447a	-0.03766296
214	0x3d2379d0	0.03991109
215	0x3d62afc2	0.055343397
216	0xbd21d7bc	-0.03951238
217	0x3b00056a	0.0019534477
218	0x3defe737	0.117140226
219	0xbdcf7f54	-0.10131708
220	0xb99746ed	-0.00028853808
221	0xbd86cb1e	-0.0658171
222	0x3df38490	0.11890519
223	0xbde5e789	-0.112258025
224	0xbdbdec85	-0.09273628
225	0x3ca3176a	0.019908626
226	0xbcc3d148	-0.023903504
227	0xbe2f7be0	-0.17137098
228	0xbd816665	-0.06318358
229	0xbbf09eae	-0.007343135
230	0xbcdabb91	-0.026700767
231	0xbd0f2459	-0.034946773
232	0x3dcc03a8	0.09961635
233	0x3c184046	0.009292668
234	0xbde1b442	-0.110207096
235	0x3d57a09e	0.05264341
236	0x3dd1615f	0.1022365
237	0xbd7e687e	-0.06211137
238	0xbd2048e4	-0.039132014
239	0xbce6da75	-0.02818034
240	0xbd818b32	-0.063253775
241	0x3da7d3c4	0.08194688
242	0xbdc2a3d4	-0.09503904
243	0xbd11d410	-0.03560263
244	0x3d5e446a	0.054264463
245	0xbc8d31b1	-0.017235609
246	0xbdb3d38b	-0.08780583
247	0xbd9831d7	-0.07431381
248	0xbd0efc73	-0.034908723
249	0xbc320021	-0.010864289
250	0xbdb5a4df	-0.08869337
251	0xbc98e65f	-0.018664537
252	0xbd476666	-0.04868164
253	0x3df1f375	0.11814014
254	0x3e3e5c6c	0.18589944
255	0xbe084e89	-0.13311209

StatefulPartitionedCall/sequential_1/conv2d_3/BiasAdd/ReadVariableOp:0 f4 [128]
0	0x3ca97953	0.020687735
1	0xbd05c5bf	-0.03265929
2	0xbd64740d	-0.055774737
3	0xbd80d173	-0.06289949
4	0xbc237bc5	-0.009978239
5	0xbd4e4488	-0.050358325
6	0xbd95b61a	-0.07310124
7	0xbd9935d7	-0.07480972
8	0xbda84005	-0.08215336
9	0x3bfa52f9	0.0076392856
10	0xbc88dcfd	-0.016706938
11	0xbbfbaada	-0.007680279
12	0xbd4b05f8	-0.04956624
13	0xbd861e5d	-0.0654876
14	0xbd259034	-0.040420726
15	0xbd465732	-0.048423
16	0xbdaf8bc6	-0.085715815
17	0x3d702911	0.058632914
18	0xbd9ca157	-0.07647961
19	0xbda21624	-0.07914379
20	0xbcfe0d83	-0.031012302
21	0xbc9a91d9	-0.018868374
22	0xbd095a34	-0.03353329
23	0xbd8305e6	-0.063976094
24	0xbd147a1d	-0.03624927
25	0xbdfaf4dd	-0.12253735
26	0xbde14ada	-0.11000605
27	0xbd27e933	-0.04099388
28	0xbd9d84ee	-0.0769137
29	0xbd93cf89	-0.072173186
30	0xbc00623e	-0.007835923
31	0xbd5445fa	-0.051824547
32	0xbd1ac9e1	-0.037790183
33	0xbd988f82	-0.07449247
34	0xbd8868a7	-0.06660586
35	0xbdb56c07	-0.08858495
36	0xbd9a5473	-0.07535639
37	0xbc89f761	-0.016841592
38	0xbdb2b880	-0.08726597
39	0xbc8ba10a	-0.017044563
40	0xbd409c86	-0.047024272
41	0xbd4e914d	-0.05043154
42	0xbde0b628	-0.109722435
43	0x3de3d2d9	0.111242004
44	0x3e1aadeb	0.15105407
45	0xbc45bae6	-0.012068486
46	0xbdb89784	-0.09013274
47	0x3d002c0d	0.03129201
48	0xbd831871	-0.06401146
49	0xbd2718a8	-0.040795
50	0xbcfad227	-0.030617787
51	0xbc23c09b	-0.009994651
52	0x3cac038a	0.020997781
53	0xbd8504a9	-0.064950295
54	0x3b64043e	0.0034792568
55	0xbccf6df7	-0.02532099
56	0xbda93893	-0.08262744
57	0xbd0a2158	-0.033723205
58	0x3d31736f	0.043322977
59	0x3c67a105	0.014137511
60	0x3bbae038	0.0057029985
61	0x3d714a32	0.05890865
62	0xbda77a69	-0.08177645
63	0xbdc6630e	-0.09686862
64	0xbdb9a585	-0.090647735
65	0x3d11be06	0.03558161
66	0x3cc8065b	0.024417093
67	0xbc9fe9cc	-0.019520663
68	0xbd7d1394	-0.06178625
69	0xbd9bb22e	-0.076023445
70	0xbd78aae3	-0.060709845
71	0xbd848527	-0.06470709
72	0x3c909a9e	0.017651852
73	0xbcc3d8aa	-0.023907024
74	0xbd76e213	-0.060274195
75	0xbd5b349a	-0.05351696
76	0xbda74f28	-0.08169395
77	0xbc84d23d	-0.01621353
78	0xbd6cfa42	-0.057855852
79	0xbdc2a02d	-0.09503207
80	0x3d560d5d	0.052258838
81	0xbd624baf	-0.05524796
82	0xbd873e8b	-0.06603726
83	0xbdb43a85	-0.08800224
84	0xbdcf8ec9	-0.10134656
85	0xbc9fa9fa	-0.01949023
86	0xbd9cf45d	-0.07663796
87	0xbd07baf9	-0.033137295
88	0xbd251d18	-0.04031095
89	0x3c5c18b3	0.013433623
90	0xbaa05cf9	-0.0012234739
91	0xbdc7151f	-0.097208254
92	0xbdbf62ff	-0.09345054
93	0xbd060f50	-0.032729447
94	0x3e0c3a26	0.13694057
95	0xbd5ca87b	-0.053871613
96	0xbd673317	-0.056445207
97	0xbdb724a8	-0.089425385
98	0xbde2010c	-0.11035356
99	0xbd8d996a	-0.06914027
100	0x3d1790f6	0.03700348
101	0xbd2c3758	-0.042044967
102	0xbc0d4611	-0.008622662
103	0x3cb57e85	0.022155056
104	0xbca645e4	-0.020296998
105	0xbd93b238	-0.07211727
106	0xbd5c1d55	-0.05373891
107	0xbdc0f7e2	-0.0942228
108	0xbd899555	-0.06717936
109	0xbdb222ba	-0.0869803
110	0xbda7b522	-0.08188845
111	0x3e7d3326	0.24726543
112	0xbc639751	-0.013891057
113	0xbdcbede4	-0.099574834
114	0xbb07552f	-0.0020650139
115	0xbd355947	-0.044274595
116	0x3d67141b	0.05641566
117	0xbbfdabf9	-0.007741448
118	0x3d8981f7	0.06714242
119	0xbcdcca34	-0.026951887
120	0x3e6e9120	0.23297548
121	0xbaa593ee	-0.0012632587
122	0xbd1c18ac	-0.038109466
123	0xbda95353	-0.08267846
124	0xbd287f07	-0.041136768
125	0x3da948a5	0.08265809
126	0x39bd2499	0.00036076157
127	0xbc9e2581	-0.019304993

StatefulPartitionedCall/sequential_1/conv2d_2/Conv2D/ReadVariableOp:0 f4 [64, 32, 3, 3]
0	0x3cb54d0d	0.022131467
1	0xbc98bf89	-0.018646019
2	0xbd827a1c	-0.06370947
3	0xbd8b64d0	-0.06806338
4	0xbbe09a65	-0.0068543428
5	0x3c58bcfc	0.013228651
6	0xbbb7b66a	-0.0056064622
7	0x3ce89a5f	0.028393922
8	0x3d893e43	0.067013286
9	0x3c8754f6	0.016520005
10	0x3cdb5a66	0.026776504
11	0x3e0e6dd1	0.13909079
12	0xbb8aa087	-0.004230562
13	0x3cc9b496	0.024622243
14	0x3c8990f6	0.016792756
15	0xbd469589	-0.04848245
16	0xbdb6071a	-0.08888073
17	0xbe271f95	-0.16320641
18	0xbdad3bb5	-0.08458654
19	0xbcb65ac5	-0.02226008
20	0xbbf4e931	-0.0074740876
21	0xbaef1e24	-0.0018243236
22	0x3ad41d30	0.0016183015
23	0xbda9fa7a	-0.08299728
24	0xbbde96b4	-0.0067928676
25	0xbd8b61ed	-0.06805787
26	0xbd95f894	-0.07322803
27	0xbcf21d77	-0.029555066
28	0x3cf80377	0.03027509
29	0x3c86b328	0.01644285
30	0x3b820b29	0.0039686156
31	0xbc0ad978	-0.0084747
32	0xbd9ec24c	-0.07751903
33	0x3d8ceac1	0.06880713
34	0xbda8b3b4	-0.08237401
35	0xbd6c788a	-0.057732143
36	0xbcbeead8	-0.023305342
37	0xbc88a7f4	-0.016681649
38	0xbbce2da9	-0.006292064
39	0xbcfa1a7e	-0.03053021
40	0x3db135a0	0.08652806
41	0xbda62fa7	-0.08114558
42	0x3ca0a0f7	0.019608004
43	0xbd678ff1	-0.056533758
44	0xbd865769	-0.06559641
45	0xbd5ae5ab	-0.053441685
46	0x3b6bd0a0	0.0035982504
47	0xbda8ab4b	-0.082357965
48	0x3c1b6c72	0.009486305
49	0x3d5ccfd4	0.053909138
50	0x3dac2bbc	0.08406779
51	0x3dc63a18	0.09679049
52	0xbd058808	-0.032600433
53	0xbd958f9f	-0.07302784
54	0xbd060358	-0.032718033
55	0x3e0d1c1a	0.13780251
56	0x3e2c6a9a	0.1683754
57	0xbe23f710	-0.16012216
58	0x3d52f772	0.051505513
59	0xbd8ccc29	-0.06874878
60	0x3b78a8b2	0.0037942347
61	0x3d8fdba4	0.07024315
62	0x3e0cbb1f	0.13743256
63	0x3d835f59	0.064146705
64	0xbd1347c1	-0.0359571
65	0x3d017aaf	0.03161114
66	0x3d40ff3a	0.047118403
67	0x3dcf38f3	0.10118284
68	0x3e026adb	0.12736075
69	0xbdfc53ab	-0.12320646
70	0xbe232805	-0.15933235
71	0xbcff25ad	-0.031145895
72	0xbddb00ae	-0.10693489
73	0xbe26d8e3	-0.16293673
74	0xbd019cf7	-0.031643834
75	0xbe38a80e	-0.18032858
76	0x3ca1b82a	0.019741137
77	0xbdb94d9c	-0.09048006
78	0xbd8be2d8	-0.068303764
79	0x3da8017e	0.082034096
80	0x3e6e1989	0.23251928
81	0xbe17e4e8	-0.14833415
82	0xbd8a13b8	-0.06742042
83	0xbe205162	-0.15656045
84	0xbd0b79d5	-0.034051735
85	0x3dd51b2f	0.104055755
86	0x3c34ba32	0.011030721
87	0xbdcb4903	-0.09926035
88	0xba05b03b	-0.0005099808
89	0x3d281bdc	0.041042194
90	0x3d86ce81	0.06582356
91	0x3a814940	0.0009863749
92	0xbc3db2e4	-0.011578295
93	0x3e44b959	0.1921133
94	0x3dbafd48	0.09130341
95	0xbdcad7d0	-0.09904444
96	0xbdaa2806	-0.08308415
97	0xbde90910	-0.11378682
98	0x3cb96891	0.022632869
99	0xbd4cdda8	-0.050016075
100	0xbdb8948b	-0.09012707
101	0xbd2b166d	-0.041769434
102	0xbe10ac58	-0.14128244
103	0xbd2e34cb	-0.042530816
104	0x3bd16915	0.0063907006
105	0xbe66749d	-0.22505422
106	0x3db045b2	0.08607043
107	0x3e50dfa5	0.20397814
108	0xbd86105c	-0.06546089
109	0xbd4aa173	-0.049470376
110	0x3c662f1e	0.01404932
111	0xbc3a80c3	-0.011383238
112	0xbd839b8f	-0.06426155
113	0x3dc14038	0.09436077
114	0xbdae2dda	-0.08504839
115	0x3c8137f6	0.015773755
116	0x3cc985cf	0.024599938
117	0xbc757703	-0.014981988
118	0xbd054a59	-0.032541607
119	0xbc6353b7	-0.01387494
120	0xbc8a2dee	-0.016867604
121	0xbd0d3231	-0.034471694
122	0x3d28b9aa	0.041192688
123	0x3bb23372	0.0054382617
124	0x3deaaa49	0.114582606
125	0x3d8c70da	0.06857462
126	0xbcfdb0d7	-0.030968113
127	0x3d92422f	0.0714153
128	0x3d3eab9e	0.046550386
129	0xbdc47909	-0.09593398
130	0x3c81a27b	0.015824547
131	0xbddebc17	-0.10875719
132	0x3d9a0ea6	0.07522325
133	0xbe1f3ecb	-0.15551297
134	0xbd8d77c1	-0.06907607
135	0xbd914438	-0.0709309
136	0xbc941485	-0.01807619
137	0xbc2a5abf	-0.010397612
138	0x3c143c9e	0.009047655
139	0x3cac8c1c	0.021062903
140	0x3d68bec4	0.056822553
141	0xbd82afe8	-0.06381208
142	0xbc9899d0	-0.018628031
143	0xbcf1b3bc	-0.02950465
144	0x3e1ff8ab	0.15622203
145	0x3c5fc9e0	0.013658971
146	0xbd6083f5	-0.054813344
147	0xbcd2deed	-0.025741065
148	0x3d146479	0.03622863
149	0x3bb3bc27	0.005485076
150	0xbce94a65	-0.028477857
151	0xbdf4b21b	-0.119480334
152	0x3d137956	0.036004387
153	0xbcdbcda1	-0.02683145
154	0xbdaf25ae	-0.08552109
155	0xbd85739d	-0.06516192
156	0xbe57998c	-0.21054667
157	0xbde749db	-0.11293384
158	0xbd5f4893	-0.05451257
159	0xbde30f2e	-0.1108688
160	0xbdc8c63f	-0.098034374
161	0x3dd4ef26	0.103971764
162	0x3c6bf8fd	0.014402625
163	0xbcf29209	-0.02961065
164	0xbd0c4712	-0.034247465
165	0xbd7ed336	-0.062213145
166	0x3ccacdf7	0.024756415
167	0xbdc40b5c	-0.09572479
168	0x3d0378c4	0.032097593
169	0xbd87690a	-0.066118315
170	0xbcf4e03c	-0.02989208
171	0x3d428038	0.04748556
172	0x3d7316b2	0.059347816
173	0xbd026770	-0.031836927
174	0x3ddf3256	0.10898273
175	0xbd6b7ea3	-0.057493817
176	0xbbbd8fc2	-0.0057849595
177	0xbdca9683	-0.09891989
178	0xbd365a13	-0.044519495
179	0x3d858008	0.06518561
180	0xbc611ee3	-0.013740274
181	0xbc72a509	-0.014809855
182	0xbe19d866	-0.15023956
183	0xbb9b9200	-0.004747629
184	0x3ccf53b3	0.025308466
185	0x3cb96836	0.0226327
186	0x3ccc75c5	0.0249585
187	0x3ce2e300	0.027696133
188	0xbd9dc10e	-0.07702838
189	0xbcb719aa	-0.022351105
190	0xbc86d17b	-0.01645731
191	0xba4b40f0	-0.0007753512
192	0xbc16f08d	-0.009212625
193	0xbd9d3dc0	-0.076777935
194	0xbbf46b35	-0.007459069
195	0xbdc5b7a7	-0.096541695
196	0xbe01bdd1	-0.12670065
197	0xbbb6f6e9	-0.005583633
198	0xbb9370a0	-0.00449951
199	0x3c83113d	0.01599943
200	0xbd00d7e7	-0.0314559
201	0x3dd44780	0.103652
202	0x3c5b4db1	0.013385222
203	0x3d9c46b7	0.07630675
204	0xbd2528fd	-0.040322293
205	0x3b94d596	0.004542063
206	0xbdb18faa	-0.0866998
207	0xbcbcf0a6	-0.023063969
208	0xbddcaeac	-0.107755035
209	0xbb91638c	-0.0044369157
210	0xbcfe965c	-0.031077556
211	0xbcecec35	-0.028921226
212	0xbd1a4ded	-0.037671972
213	0x3d684fe3	0.05671681
214	0xbe069167	-0.13141404
215	0xbda11dbb	-0.07866999
216	0xbe10644f	-0.14100765
217	0xbdae38ec	-0.08506951
218	0xbe3cf4f4	-0.18452817
219	0x3d30e1a6	0.043183945
220	0xbded7fe6	-0.1159666
221	0xbe105cff	-0.14097975
222	0xbdfdf40e	-0.12400065
223	0xbd56b493	-0.052418303
224	0xbe6f55c0	-0.23372555
225	0xbd027573	-0.03185029
226	0xbdc0fd16	-0.09423272
227	0x3d9c8a9a	0.07643624
228	0xbdd17e0b	-0.10229119
229	0xbd796e08	-0.06089595
230	0xbd2e7878	-0.042595357
231	0xbde9f767	-0.114241414
232	0xbd39636e	-0.04526084
233	0xbceaf615	-0.028681794
234	0xbd3e2096	-0.046417795
235	0xbd1b2f49	-0.03788689
236	0xbd8db2a1	-0.069188364
237	0xbd4660da	-0.04843221
238	0x3d9ecf71	0.0775441
239	0x3d24c7a7	0.040229466
240	0xbb85604c	-0.0040703174
241	0xbd63e75f	-0.055640575
242	0xbdf9af7c	-0.12191674
243	0x3d74cdee	0.059766702
244	0x3e703811	0.23458888
245	0x3d4b12ae	0.04957836
246	0x3dc2f79a	0.095198825
247	0x3e2b18dc	0.16708702
248	0xbe28a574	-0.16469365
249	0x3daed355	0.08536402
250	0xbceb5546	-0.028727185
251	0xbe68c36e	-0.227308
252	0x3d9fe0cf	0.07806551
253	0xbb619de8	-0.0034426395
254	0x3d1eaf8d	0.038741637
255	0xbdb488e0	-0.08815169

StatefulPartitionedCall/sequential_1/conv2d_2/BiasAdd/ReadVariableOp:0 f4 [64]
0	0xbe19399c	-0.14963382
1	0x3d1df780	0.038566113
2	0xbd86216f	-0.06549346
3	0xbdb2bf4f	-0.087278955
4	0xbe316ad9	-0.17325915
5	0x3d4c5dbf	0.04989409
6	0xbdad308b	-0.084565245
7	0xbb333cee	-0.002734955
8	0x3d2e23dd	0.04251467
9	0xbdeef0c7	-0.116670184
10	0xbd683440	-0.056690454
11	0xbde8069d	-0.113293864
12	0xbc88f3fc	-0.016717903
13	0xbdb841e2	-0.08996941
14	0xbdcf8f48	-0.101347506
15	0xbe06e248	-0.13172257
16	0xbe020ffb	-0.12701409
17	0x3c261730	0.010137364
18	0xbc801839	-0.01563655
19	0xbbf5c97f	-0.007500827
20	0xbe1fe2cc	-0.1561386
21	0x3cb5d962	0.022198383
22	0xbd7d916c	-0.061906263
23	0xbe188f9e	-0.14898536
24	0xbdc28300	-0.094976425
25	0xbdb26350	-0.087103486
26	0x3e8bbbbc	0.27291667
27	0xb96c4368	-0.00022531825
28	0x3e16c5f9	0.14723958
29	0xbd6a308f	-0.057175215
30	0x3d551aba	0.05202744
31	0xbdae35ba	-0.08506341
32	0x3da3771b	0.07981702
33	0xbd1024fb	-0.035191517
34	0xbc7c9869	-0.015417197
35	0xbd446ecf	-0.047957238
36	0xbe265d5f	-0.16246556
37	0xbd821489	-0.06351573
38	0xbd27feae	-0.041014366
39	0xbe3856a7	-0.18001805
40	0xbe0402cd	-0.12891693
41	0xbe06eb41	-0.1317568
42	0xbcc27a95	-0.023740092
43	0xbd8216f0	-0.06352031
44	0xbdfc42e8	-0.12317449
45	0xbda5b0be	-0.080903515
46	0x3db236e2	0.08701874
47	0x3d3b253e	0.045689814
48	0xbdaf214f	-0.08551275
49	0xbd46ed31	-0.048566047
50	0xbd6f0121	-0.058350686
51	0xbe24ea00	-0.16104889
52	0xbe3dcd77	-0.1853541
53	0x3d841bd1	0.06450618
54	0xbe0aec08	-0.13566601
55	0x3c36f7d0	0.011167482
56	0x3b976df6	0.0046212627
57	0xbd82b887	-0.06382852
58	0x3d86b1db	0.06576892
59	0xbda59758	-0.08085507
60	0xbdbc4488	-0.09192759
61	0xbe5cf797	-0.21578823
62	0x3c0396e1	0.008031578
63	0x3aeb65f6	0.0017959464
